src/reddit_classifier.pth (torch, 859820 bytes, 6 tensors)

fc1.weight f4 [256, 771]
00000000: fbca eebb 2b6a a9bc 01db 85bb 0269 c7ba
00000010: 9838 64bc 194d 10bd 8f22 4cbc 4101 0c3b
00000020: 1c8a b4bc 921a 133d 2bfc b03c bf19 293c
00000030: a691 80bc 7414 643c 685d 353c 4a60 5a3c
00000040: 61e9 d5bb 0de1 0b3d b17c fabb 4cb8 003d
00000050: dcc0 e1bc 6748 f5bc 53ca 9bbc 80b7 0f3d
00000060: d696 773a 44dd 843c 715f b4bc 9383 ee3c
00000070: eaea 85bc c9ff 843b 0cd3 16bc 1073 043c
00000080: 94f7 ed3b 089d 36bc 2dec cfbc 36d4 98bc
00000090: da52 b53c 791b f2bb 9bd3 0bbd f537 c0bc
000000a0: 8611 da3b 25ee abbc c73e 81bc 6cf8 b73b
000000b0: 2db3 3b3c 3e63 0a3d a42c ed3a f013 96bb
000000c0: bd8a 9d3c c129 da3c 448e e93c 7d0c 25bc
000000d0: 1a2c 033d a40f c6bc 4300 a13c 6629 933c
000000e0: 056a 12bc 76a3 50bb 7204 3d3c 4a32 813b
000000f0: d2c7 d6bc 3f93 ec3c 4818 e7bc 7051 44bc
00000100: f854 e53c 4653 00bd e5dd 0c3d 1ef0 b83c
00000110: 97ad 0dbd b153 eb3c 9115 ca3b 7f6c 163c
00000120: dcee eb3c 82a3 02bd 7565 f13b 202d 3a3c
00000130: 7726 703c 58ff 6bbc 0053 da3c ffdc 10bd
00000140: 66f2 41bc 280f d0bc d952 a63b 52fe 41bc
00000150: 0cac c0bc cf03 2bbc 3e6d fd3b 4a77 d8bc
00000160: 9785 843c 1230 69bc e0b9 833c 2b55 b4bc
00000170: d596 ccbc 6f49 a13c 531e 1ebc abfe 013d
00000180: f9bb ea3b 5257 aabc 904a 56bc f173 e139
00000190: 7135 8ebc 9c90 813c 38d4 523c 41c9 063c
000001a0: b27c 8abb aed9 d4bc 89dd 613c 0e38 dc3c
000001b0: 230b 77bc 2962 013d 3819 f7bc fd30 d53c
000001c0: 5834 9f3c 28ed fdbc 4cb2 d2bc ab57 06bd
000001d0: bd03 ae3c 40cb 963a dc9b 743c 663e 873c
000001e0: a433 42bc 6ecb 0b3d 2aad f73a 29f6 5a3c
000001f0: 5341 ae3c 0352 473c 3d33 22bc d65f c23c
00000200: b16b 02bd 927b e0bc 31ec bc3b cfdf ea3b
00000210: 5ace 4abc adf2 0a3d 1159 4cbc 8aa5 dbbc
00000220: 36aa 913c 0391 e6bc 73a6 2e3c e9e0 433b
00000230: de54 6dbc d4c8 15bc d5ce 853b fc2e 8b3c
00000240: 6f37 30bc fed1 ec3c 2788 b2bc 33f2 ef3c
00000250: 2d74 b83c d3f2 0d3c 007e fc3a 6274 963c
00000260: 9e50 6a3c 5ea4 0dbd 8748 f23a fe31 debc
00000270: 397b d4bb 2b8b 553c 7744 963c 6757 b7bb
00000280: e15c f1bc 0b1b 29bc 1ded cfbc 1dc0 ef3c
00000290: d49c ddbb 9efd f1bc 5b90 f6bc 1d2d 0ebd
000002a0: 00c5 bcbc 7b15 acbb 4d25 9abc cd8d 04bd
000002b0: 78ec 0fbd 66e1 b8bc 0cdc e2bc 6150 f5bc
000002c0: f0ec d4bc 6dc0 5abc 6046 e1bc 0919 f53c
000002d0: ca3e 1b3c 6d98 123d 828b b03c 40a4 b0bc
000002e0: d13c c8bc e190 343c 3734 003d f452 063d
000002f0: 9f5a 0c3d 2774 063d 4881 c4bc 42f2 8c3a
00000300: aa54 f5bc 5918 163c 39a8 0d3c 2fea 0abd
00000310: 4418 ec3c 3835 893b 8abe ffbb 2a27 8a3a
00000320: f937 52bb 56ac 17bc 3d86 003d c7a6 aabc
00000330: 620b c6bc 31a6 f53c 0271 b03c 27db b4bc
00000340: 5c54 0e3d 8966 8c3c 3901 053d 000d 3d3b
00000350: aa15 a03c 4445 d03c c0aa 1f3c 5dce 82bc
00000360: 4b81 a1bb b93f 01bd 1204 ec3c 3f89 d6b8
00000370: 1a5f c4ba 5b53 05bd cc2a aa3c ad40 2e3b
00000380: d76f b63c 4c42 5e3c 20a0 b33a 15a7 a3bc
00000390: 6dd4 a6bc 45fc 2b3a dfa2 c5bb 67f9 0ebc
000003a0: 7743 a7bc d2e0 10bd e71a 4ebc fabf d4bc
000003b0: 4cbb 8b3c 070b 133d fe97 8bbc 6d46 0d3c
000003c0: cba7 f33c bef6 933c aed3 d2bc 20df 12bd
000003d0: 6850 0ebc 51e0 38ba 26d0 6bbc 8664 d93c
000003e0: 7bc8 063b 18fc fc3c 9b57 053c e1e0 8a3c
000003f0: 56ce aebc 9390 34bc 04b3 fb3c b275 053d
-0.0072873808 -0.020680508 -0.004084945 -0.001521379 -0.013929509 -0.035229776 -0.012459411 0.0021363052
-0.022038512 0.03591401 0.021604618 0.01032108 -0.01569445 0.013920892 0.011069633 0.013328621
-0.006528065 0.034150172 -0.007644259 0.03142576 -0.027557783 -0.02994175 -0.019017374 0.03508711
0.00094447786 0.016218789 -0.022018166 0.029115474 -0.016347367 0.0040588123 -0.009205591 0.008084074
0.0072621796 -0.011145838 -0.025381172 -0.018655878 0.022134233 -0.007388529 -0.03413735 -0.023464182
0.006654921 -0.02098758 -0.015777005 0.005614331 0.011456293 0.03378605 0.0018094969 -0.0045800135
0.019231195 0.026631238 0.02851022 -0.010073778 0.03202448 -0.02417738 0.019653445 0.017964076
-0.00893641 -0.0031835712 0.011536704 0.0039427625 -0.026218329 0.028878806 -0.02820982 -0.011982307
0.027994618 -0.031329416 0.034391303 0.022575434 -0.034589376 0.02872643 0.0061671217 0.009181141
0.02880042 -0.031894214 0.007366831 0.011363298 0.014657608 -0.01440414 0.026650906 -0.03536701
-0.011837577 -0.025397852 0.005075794 -0.01184042 -0.023519538 -0.01043792 0.00773397 -0.026424069
0.016176982 -0.014232652 0.016079843 -0.022013268 -0.024974266 0.019688336 -0.009650785 0.03173701
0.0071635214 -0.02079359 -0.0130793005 0.00043001727 -0.017359467 0.015816025 0.01286798 0.008226694
-0.0042262906 -0.025982704 0.013785728 0.026882198 -0.015078339 0.031587753 -0.030163392 0.026024336
0.01943414 -0.030996874 -0.025719784 -0.03279845 0.021242017 0.0011504665 0.014929738 0.016509246
-0.011853132 0.034129553 0.0018896211 0.013364353 0.021271383 0.012165549 -0.0098999115 0.023727339
-0.031840984 -0.027402673 0.005765461 0.0071677933 -0.0123783 0.03392284 -0.012472407 -0.026812334
0.017781358 -0.028145319 0.010659802 0.0029888696 -0.014485566 -0.009142119 0.004083494 0.016990177
-0.010755404 0.028908726 -0.021793438 0.029290294 0.022516334 0.008663851 0.0019263625 0.018366043
0.014301447 -0.03458058 0.001848475 -0.027123448 -0.006484416 0.0130336685 0.018343193 -0.005595136
-0.029463233 -0.010321389 -0.02538162 0.029266411 -0.00676308 -0.02953988 -0.03009813 -0.034710992
-0.023043156 -0.005251584 -0.018816615 -0.032361794 -0.035137624 -0.022568416 -0.027692817 -0.029945554
-0.025991887 -0.013351542 -0.027499378 0.029919164 0.009475419 0.035789896 0.021550898 -0.021562696
-0.024443062 0.01102087 0.031299796 0.032793954 0.03426611 0.032825615 -0.023987427 0.0010753351
-0.029947598 0.009161078 0.008646064 -0.03391474 0.028820165 0.0041872524 -0.0078046964 0.0010540236
-0.003207682 -0.009257397 0.03137802 -0.020831479 -0.02417535 0.029986473 0.021538261 -0.022077156
0.03474842 0.017138736 0.03247187 0.002884686 0.01954158 0.025423653 0.0097453 -0.015967542
-0.004928743 -0.03155491 0.028810535 -0.00010229879 -0.0014981956 -0.032550197 0.02077236 0.0026588843
0.022270126 0.013565611 0.0013704337 -0.019977132 -0.020364964 0.00065607234 -0.0060313786 -0.008726454
-0.020417912 -0.035370655 -0.012579656 -0.025970448 0.017057084 0.03589919 -0.017040249 0.008622748
0.029743096 0.018061992 -0.025735702 -0.03585732 -0.0086861625 -0.0007052469 -0.014392888 0.026537191
0.0020566273 0.030881926 0.008138563 0.016952934 -0.021338623 -0.011020797 0.03072501 0.032582946

fc1.bias f4 [256]
00000000: 26a7 55bc 52c4 9739 0196 e3bb e213 20bc
00000010: 483b c6bb cd93 933a ffb5 003d eb53 b6bc
00000020: 047a 063c 0cba 603c 8a55 d4bc 635a 053b
00000030: 188d ff3c 586a eabb e36f d23c d028 13bc
00000040: ad96 74bc 4a0b a5bc f8a9 28ba e1a8 0b3d
00000050: 3e63 d6bc 6df3 2dbc 491b ce3a 0e35 043d
00000060: 5d4b 0f3c 291e 0a3c 16c2 893c 65dd a8bc
00000070: 0e36 7b3c f63d bfbc c59b 72b9 8a15 a3bc
00000080: 79f9 65bc 5a60 8ebc 2dff 8abc afbe 743c
00000090: f111 0e3d 13de a63b bb2e 143d cba9 2f3b
000000a0: 14b6 003d e8c5 5f3b 7b6a 9f3c a2c5 413c
000000b0: 2373 3abb ffb3 88bc ad90 eebc efa1 1e3d
000000c0: de78 303c 28bf c33c e43e 0d3b 3de9 d13c
000000d0: 5c0e b43c 456e edbc e10c 653c d061 8cbc
000000e0: afa8 033b 75a6 0f3d ded2 e4bb a5c2 093d
000000f0: 87b7 dabc 1f9d 393c 22a3 ea3a bcd7 c1bc
00000100: 50a6 e53c 8cea 103d 0219 97bb f17b f63b
00000110: 3aca e6bc e468 f73c 38b0 d0bc 9fa6 b83c
00000120: 4deb 9fbc 1281 5abc 82e4 c03c 79ed fd3c
00000130: 96ca eebb f5e6 183b 972c 3e3c 1685 e43c
00000140: 47ae a4bb e0da 2ebd 493c e9bc f9f7 cc3b
00000150: 1850 28bc 09c3 b7bb b1dd 9a3b aabc 43bb
00000160: 8a49 033d 010d 0bbc dc47 bcbc e59f 6ebc
00000170: ff88 09bd 9c61 ba3c c58a b53a e279 02bc
00000180: 94ab 9fbc b1aa e73c 883b bdbb 1113 073c
00000190: 3faa 97bb 4838 d83c 48be 9bbc a739 f8bb
000001a0: 3699 3bbc 0c0e ebbc 9f98 61bc 23df f9bc
000001b0: 38b5 e03b ce6b 6bbc 7354 d7bc f053 443c
000001c0: 7e9c fb3c 3aa7 b0bc 0dfe e1bc 3da4 083d
000001d0: dc73 133c f998 e2bc ef21 6e3b 9475 49bc
000001e0: 6f0f 7ebc aa0f 1bbd 4ec6 063c 9cce 923c
000001f0: 9f5e 7a3c 04f7 1a3d 6fb7 37bc 61bb 923c
00000200: d74a acbb 072e 1c3d 9756 ea3b 8c09 a4bb
00000210: 78b2 9abc 92fa 683d 316b 863c ae22 5f3c
00000220: e343 f13c ecc2 36bb 1b02 5eb9 ccb1 ddbc
00000230: 1e1e 843c 3bc4 da3b d8d8 9bbc 217d 1fbc
00000240: a8fa d4bc d1a7 9cbc 4721 ca3c dfbf 703c
00000250: d448 9e3c 99fa cabc d7ed f1bc f1c2 3c3d
00000260: 881f cc3b 0283 113d 3855 f6bb 51ef 7a3c
00000270: 0c7f 0c3d c176 663c 8ff6 9ebc 1222 d3bc
00000280: d547 a53c 0719 40ba a78d 933c 6a13 213d
00000290: f882 5dbc 275f 3cbb fe4c f53a 3e4f 1a3d
000002a0: de72 063c a64e 7bbc ff74 b83b 0b90 93bc
000002b0: 75af 4ebc a371 64bb 17cf 31bc c0b2 9dbc
000002c0: b2a8 883b c1bd ba3c ead8 e03c dbc2 f1bc
000002d0: 3fd8 a53c a49d 86bc a734 fa3c e744 9f3c
000002e0: 4f82 7abc 8a1f 003d 3445 20bc bda7 f13b
000002f0: 7b57 b43c d1df e8bb d5c6 b0b9 c21a 5d3c
00000300: 4727 db3c 53f3 3cbb f9e8 55bc 6359 0f3d
00000310: f454 31bb c955 d9bc 8251 93bc efb1 0c3d
00000320: f2aa 5ebc 83cd 173c ec75 8bbc a50d b33c
00000330: f9b1 173b 2c62 2cbc 217d 6bbc 4cf0 26bc
00000340: 6885 5a3c c492 333c c99e d0bc 8dcf 0dbc
00000350: 3183 9a3c 3802 eabb 511e 833c 72d4 ef3c
00000360: 8968 04bc 79ea afba 5ee9 913c d5a5 7aba
00000370: 2794 d1bc 4597 813c 7cff e83c 3ffd 06bc
00000380: ef80 c3bb 2495 4e3c 3d02 e63c 9d84 b03b
00000390: bb82 8f3c 4456 e0bc 91b7 d5bc a9cd 243d
000003a0: 4d40 ed3c 90a6 d2bc 452c 50bb 1f56 cabb
000003b0: c62f 83bc 0de8 2c3c f3c8 79bb ab28 f93c
000003c0: 3c57 ee3c 29f7 d83a 2081 ef3c 6183 42bc
000003d0: 1be1 c63c f726 073c ad92 733c c1a3 97bc
000003e0: 2984 a0bc 19c5 9039 104f 9b3c 2484 ad3c
000003f0: 1629 b6bc 170a fc3c 22ac bf3c d745 f63c
-0.01304034 0.00028947234 -0.006945372 -0.009770365 -0.0060495473 0.0011259258 0.031423565 -0.022256812
0.008207802 0.013716232 -0.025919694 0.0020348064 0.031195208 -0.0071537904 0.025688117 -0.008981898
-0.014928502 -0.020146985 -0.0006434019 0.034096602 -0.02617037 -0.010617119 0.0015724684 0.03227716
0.008745995 0.008430042 0.01681618 -0.020613382 0.015332712 -0.023344975 -0.00023136947 -0.019907732
-0.01403653 -0.017379928 -0.01696738 0.014938041 0.03468508 0.0050923913 0.03617738 0.0026804085
0.031423643 0.003414506 0.019459954 0.0118269045 -0.0028449974 -0.016687391 -0.029121721 0.03872865
0.0107710045 0.023894861 0.0021552378 0.025623912 0.021979503 -0.028983245 0.013980121 -0.017136484
0.0020089557 0.035070855 -0.006983145 0.033632893 -0.02669884 0.0113289645 0.00179014 -0.02366244
0.028033406 0.03537993 -0.0046111355 0.007522099 -0.028172601 0.030201383 -0.025474653 0.022540389
-0.01952138 -0.013336437 0.023546461 0.030997025 -0.0072873337 0.002333102 0.011607311 0.027895492
-0.0050256583 -0.042689204 -0.028471129 0.0062551466 -0.010273002 -0.005607967 0.0047261347 -0.0029867091
0.032052554 -0.008486987 -0.022983484 -0.014564489 -0.033577915 0.022751622 0.0013850561 -0.007963629
-0.019490995 0.028279634 -0.005774919 0.008244292 -0.004628449 0.026394024 -0.019011632 -0.007575232
-0.011450103 -0.028693222 -0.013769298 -0.030501908 0.0068575405 -0.014368964 -0.026285386 0.011982903
0.03071427 -0.021564115 -0.027586961 0.033359755 0.008999791 -0.027660834 0.0036336144 -0.012296099
-0.015506609 -0.037856735 0.00822599 0.017920785 0.0152813485 0.03783323 -0.011213168 0.017911615
-0.005257945 0.038129833 0.0071514356 -0.005006021 -0.018883929 0.056879587 0.016408535 0.013619108
0.029451316 -0.0027887179 -0.00021172354 -0.02706232 0.016127642 0.0066762245 -0.019024298 -0.009734423
-0.025998428 -0.01912299 0.024674071 0.014694183 0.019321837 -0.024777697 -0.029532356 0.046084348
0.0062293448 0.03552533 -0.007517483 0.015315847 0.03430085 0.014066399 -0.019404678 -0.025773082
0.020175854 -0.0007327948 0.018011881 0.039325155 -0.013519995 -0.0028743239 0.0018714962 0.037673227
0.008206097 -0.0153385755 0.0056291814 -0.018013021 -0.012615074 -0.0034857772 -0.010852597 -0.019250274
0.0041705007 0.02279556 0.027447183 -0.02951186 0.020244716 -0.01643259 0.030542685 0.019442035
-0.015289857 0.031280078 -0.009782124 0.0073747323 0.02201437 -0.007106759 -0.00033717477 0.013495149
0.026752127 -0.0028831556 -0.013056033 0.034997355 -0.0027058693 -0.026530163 -0.017983202 0.03434938
-0.013590561 0.009265306 -0.017024003 0.021857092 0.0023146851 -0.010521453 -0.014373095 -0.010189127
0.013337471 0.010960285 -0.02546634 -0.008655441 0.018861385 -0.007141378 0.016005667 0.029276107
-0.008081564 -0.0013421319 0.017811473 -0.0009561454 -0.02558334 0.015819201 0.028442137 -0.0082390895
-0.005966298 0.0126088 0.02807724 0.0053869025 0.017518392 -0.027384885 -0.026088508 0.040235195
0.028961325 -0.025714189 -0.0031764668 -0.006174817 -0.016013991 0.010553372 -0.003811416 0.0304149
0.029094331 0.0016553152 0.029236376 -0.0118721435 0.02427726 0.008249036 0.014866513 -0.018510701
-0.019594269 0.0002761267 0.018958598 0.021181174 -0.022236388 0.03076653 0.023397509 0.0300626

fc2.weight f4 [64, 256]
00000000: c016 37bb 9ace 8c3d dbfc 8bbc 7c2a 223e
00000010: b56d 6ebd 8307 bfbc 43d4 413d 0cb5 19bd
00000020: 6f98 823d 3a9c bfbd b930 ffbc a079 053d
00000030: 663d e0bc 6c74 233d 2d02 de3b d60d d9bb
00000040: 438f 0ebc bbf6 71bb e054 e5bc a6b7 e43c
00000050: 7209 bebd 3cea 4a3d 0238 3dbd 649a 8f3c
00000060: c217 9a3d 0797 973c 7e7a 273d b46b 693d
00000070: dbf6 433c 5622 03bd 5346 59bd 7fd2 4a3d
00000080: 546a 53bd a3d0 86bd 10a3 633c d49e f03d
00000090: da12 9abd 6fb9 95bc 57af 433d 5c7c fabc
000000a0: 7f7e 97bd 31d0 d83c f158 3abc 2379 c0bd
000000b0: df51 043b 4843 9fbd 2eee 03bd cbd4 423d
000000c0: c78d bfbd dc0d ee3c d6e6 cabc 81ee c33d
000000d0: c7f0 c33d fef3 d0bc 55fa ff3b 0b96 503d
000000e0: 7f08 2e3d 2d39 b03c 3fdb 78bc 9963 6f3b
000000f0: 19f0 9f3d ea42 2cbd 76df e1bd 3b8f 813d
00000100: ce41 bd3d 5277 003c 6be1 333d a127 e03c
00000110: a71c a13d 6345 f03d 0a8c 4b3d 2d08 58bb
00000120: ed0f e33c 9e86 24bd 6850 133e 087f bd3c
00000130: d4f7 5e3d fc51 01bd 9dc3 a1bc e4bf 7ebd
00000140: 59e1 f3bb b9ce 823d e639 1bbb 774c a2bc
00000150: a8f9 23bd cfcf abbd f143 acbc ffe5 87bd
00000160: e104 5ebd c00e 393d df3c 2ebe 6044 d33c
00000170: 11c3 55bd bf58 373e 8916 8b3b b7da edbc
00000180: 0fb3 bebc 04ef e23d 83dc e13c c904 823d
00000190: dc2d 5c3d 34af e23b 41f1 683e 3834 8bbd
000001a0: 5d5d 513d 5ec0 4e3d ea4b 583a 83be 133d
000001b0: 2f28 4abd 1716 28bd 06a2 04bd db7b ac3d
000001c0: a55b de3d 0680 93bc 7087 b3bd 5bd4 5c3d
000001d0: be54 d8bc d8dd cebc a871 773d fb9c bbbd
000001e0: c84b 253c ebfe 693c 4736 37bc 7111 62bc
000001f0: 4e5b 5f3d 0fba 2bbd 77ac 8b3d 6485 d3bd
00000200: 550d 76bd eb7a ae3d 2ad0 a43d f61d 183d
00000210: e931 5dbd cad6 a53c 3a8f 6abd 5a6c 5a3d
00000220: 6ee0 c73c d01a f13d ba64 acba 1891 9abc
00000230: 289b 06bd b26d 8c3d 1493 2d3b dc08 1b3e
00000240: f5fa cfbd 3fb5 13bd 8a25 e13c 2528 ebbb
00000250: 4503 d4bc 6add c63d 0156 f13c 98e0 1b3c
00000260: 8286 58bd 76e1 11bd 004a f1bc ca9b 6a3d
00000270: e938 8e3d 2557 203d 5482 823d 871a 6f3d
00000280: db9e 84bd 78a5 923d 0d15 11be f072 0a3e
00000290: 7aaa 46bd 2080 4c3d 88c1 87bc 98db a1bc
000002a0: 8026 56bc 95ec 703d ee2c 13bd 5bf2 8d3b
000002b0: a65e 723c 4e1a 163d 66ed 183d b816 0d3d
000002c0: 6bae d83d 80fa bbbb 028e ab3d 91d5 613d
000002d0: ff8d 3bbd 6997 253d 3244 5cbd 486e df3d
000002e0: 3d99 8e3b 92ac c73d e8ed cbbc b3b2 5fbd
000002f0: bb2d 52bd e969 eebd 2bbb 113d d28a f63c
00000300: 2f64 79bb ba70 0bb9 cdae 55bd 00f9 0c3d
00000310: a4f8 2d3a 7e64 0cbe 4ccc 48bd ff3e acbd
00000320: 2c31 783c a24e 903c e4d5 1a3d 3e63 5dbd
00000330: 5bb3 023d 6051 bbbb 7f72 3f3d 6d6e 733d
00000340: b4e5 923c 4318 a6bc 16aa a2bc 4a4f 3e3d
00000350: 2828 54bc a783 ccbc f913 94bc d0f3 5e3d
00000360: da29 033d 683a 8d3c 4ca1 30bc 62df f6bb
00000370: e8de 8dbd ddd5 a6bc 2d86 073d fd8c 363c
00000380: 0daa 473c e9c2 393c 15db 8e3b 0913 e93d
00000390: e9c0 0cbc 2dc4 fcbc 29c7 86bd 71b6 713d
000003a0: f1a9 a4bb 7cb2 923c 39a6 083e 0ed8 71bd
000003b0: ab83 1a3d d29c a83d bef5 713d 62b0 9abd
000003c0: 1d17 803c bde6 503b 3b17 d9bc 6366 1dbd
000003d0: 1638 90bc 3653 443d 44c5 233d 9ea8 163d
000003e0: 07ad 343d c45d 8b3d 0c03 553d 557b 2d3d
000003f0: 682d 31bd 0bdb 9b3c c0a1 c5bb 9aa5 573d
-0.0027937144 0.068753436 -0.017088344 0.15836519 -0.058210094 -0.023319012 0.04732157 -0.037526175
0.06376731 -0.0935597 -0.031151162 0.032586694 -0.027373027 0.03990595 0.0067751617 -0.006623964
-0.008701148 -0.0036920744 -0.027994573 0.027919602 -0.09279145 0.04953979 -0.04619599 0.017529674
0.07524063 0.018504633 0.040888302 0.05698748 0.01196071 -0.032015167 -0.053045582 0.04951715
-0.051615074 -0.06582763 0.013893858 0.11749044 -0.07523127 -0.018276898 0.04777464 -0.030576877
-0.07397174 0.02646646 -0.011373744 -0.09398105 0.00201904 -0.07776505 -0.032209568 0.047566216
-0.09353214 0.029059343 -0.024768274 0.095669754 0.09567409 -0.02550697 0.0078118243 0.050924342
0.04248857 0.021511639 -0.015188991 0.003652787 0.07809467 -0.042056 -0.1102895 0.06326147
0.09241067 0.007840948 0.043916147 0.027362647 0.07866793 0.117319845 0.0496941 -0.0032963858
0.027717555 -0.040167443 0.14386141 0.023131862 0.054435566 -0.031572327 -0.019746596 -0.06219472
-0.007442635 0.063870855 -0.0023685633 -0.019811852 -0.040033013 -0.08389246 -0.02102849 -0.06635665
-0.05420387 0.045180082 -0.17015408 0.02578944 -0.052187983 0.17904948 0.0042446298 -0.029034955
-0.023278741 0.11080745 0.027570968 0.06348569 0.053754672 0.0069178585 0.22748281 -0.06797069
0.05111443 0.050476424 0.0008251058 0.036070358 -0.04935473 -0.04103669 -0.03238108 0.08422061
0.108573236 -0.018005382 -0.08766067 0.053913455 -0.026407596 -0.025252268 0.060411125 -0.09160801
0.010088868 0.014281969 -0.011182374 -0.013798104 0.054530434 -0.041925486 0.068200044 -0.103281766
-0.06007131 0.085195385 0.08047517 0.037137948 -0.054002676 0.020244021 -0.057265498 0.05332599
0.024399009 0.11772692 -0.0013152577 -0.018868014 -0.032862812 0.0685686 0.002648537 0.15140098
-0.10155288 -0.03606152 0.02748372 -0.0071764165 -0.025880465 0.097102 0.029459955 0.009513997
-0.05286265 -0.035615407 -0.029454231 0.05727748 0.069444485 0.039145608 0.06372514 0.058374908
-0.06475612 0.07160467 -0.14168186 0.13520408 -0.048502423 0.049926877 -0.016571775 -0.01975803
-0.013070703 0.058819372 -0.03593152 0.0043318695 0.014793074 0.03664618 0.037335776 0.034445494
0.105801426 -0.005736649 0.08376695 0.055135313 -0.045789715 0.0404276 -0.053775974 0.10909706
0.0043517635 0.09749712 -0.024893716 -0.05461378 -0.051313143 -0.116412945 0.035578888 0.030095492
-0.00380541 -0.00013298067 -0.052168656 0.034417152 0.00066364766 -0.1371021 -0.049022958 -0.08410453
0.015148442 0.01761562 0.03780164 -0.054049723 0.031909328 -0.0057164878 0.04674005 0.059431482
0.017931797 -0.02027524 -0.019856494 0.046462335 -0.012949027 -0.02496512 -0.01807593 0.054431736
0.032022335 0.017239764 -0.010780644 -0.0075339535 -0.069272816 -0.02036565 0.033086944 0.011142013
0.012186539 0.011337974 0.0043596127 0.11380584 -0.008590915 -0.030855263 -0.065809555 0.05901188
-0.0050251414 0.017907374 0.13344659 -0.059043936 0.037723225 0.08233036 0.05907225 -0.075531736
0.015636021 0.0031875812 -0.026500335 -0.03842772 -0.017604869 0.04793092 0.03998305 0.0367819
0.044110324 0.06804994 0.05200486 0.042353947 -0.043256193 0.019025346 -0.006031245 0.052648164

fc2.bias f4 [64]
00000000: 860e f5bc 42cf 393d 8533 6c3d 71f0 2fbc
00000010: 068a 06bd 3c72 093d 6133 7e3d 277d 10bd
00000020: 0915 15bd 525f 4abc e13d 3c3d 2777 313d
00000030: 3b42 5f3c ea7b 2e3d 7c52 2b3d 4417 503d
00000040: 7454 09bc 748c a6bb 8c32 cf3c 1a6b 9dbc
00000050: 29ef 2e3c dfc2 8b3c f990 203c a18a 893c
00000060: 5e7d f83c 314a 05bc 66c5 cd3c c6f6 133d
00000070: 6ec7 4c3b 3bca d9bc 203a 693d 3dfe 3bbd
00000080: f842 bc3c 1be7 6b3d 948a 363d ad92 48bc
00000090: 2b2d 21bd 9ec2 d9bb ce18 0e3d b64d 2e3b
000000a0: 029c 27bb 5c75 d33c 6aad 83bd 55fa 8c3d
000000b0: f09d 5cbd 9fd4 de3b e8cb 6dbd 54b5 403d
000000c0: e71f 1abd 732a 06bc e832 683d a94b 13bd
000000d0: f714 983b 425b 3d3d b036 543d e0fb 00bd
000000e0: 4087 96bc 8814 27bd 722a 093d 84ce 4c3d
000000f0: c0b9 e7bb adef 11bd 5a10 1e3c 69aa 1f3d
-0.029914152 0.045363672 0.05766632 -0.010738478 -0.032846473 0.033556208 0.062060717 -0.035275605
-0.036397014 -0.012351828 0.04595745 0.043326523 0.01362663 0.042598642 0.04182671 0.050803438
-0.008381952 -0.0050826613 0.025292657 -0.019216109 0.010677137 0.017060695 0.009800189 0.016789736
0.030333217 -0.008135364 0.025118541 0.036124013 0.00312468 -0.026585689 0.056940198 -0.045896757
0.022981152 0.057593446 0.044565752 -0.0122420015 -0.039349716 -0.0066455146 0.034691624 0.0026596612
-0.0025575166 0.025812797 -0.064295605 0.068836845 -0.05386156 0.0068002488 -0.05805579 0.047047928
-0.03762808 -0.008188832 0.056689173 -0.035960827 0.004641171 0.04622961 0.051809967 -0.031490207
-0.01837504 -0.040791065 0.033487745 0.050001636 -0.0070717037 -0.035628963 0.009647453 0.038980875

fc3.weight f4 [3, 64]
00000000: 6307 293d 0814 79be 77ad 09be 75a1 36bc
00000010: 2936 27be 13c9 3dbc 7e28 dbbd aca0 c9bd
00000020: 6df3 a63d ce36 7bbc 2e57 d7ba 4581 7dbd
00000030: 24ae 7cbe c2ff 65bd 5e94 9a3d 0f9a 1b3d
00000040: ef03 013d bdce 0b3d 250e 363e 2464 d13d
00000050: 0c00 1bbe b3dc fabc 5918 52be 3649 5f3e
00000060: ba6d 4ebe 590f 023d 6d36 dd3d 61a3 9f3d
00000070: 8dfb 723e d76c 39be f06d 34be e80a bfbd
00000080: 8b85 2b3b 0dcd 1f3e e7e2 edbd 1ea2 b23d
00000090: c27d dc3d be1b ea3d e242 163e f8b8 52be
000000a0: 1133 56be 827d c33d 1704 59bd 1f2f 48be
000000b0: 8e38 79be 150b 743e c351 b2bd 158f c93d
000000c0: f4b4 053e e50a b63d 100a 1d3e 7507 c63c
000000d0: 169e 10be 8618 553d b048 953c 9927 2fbd
000000e0: 99b9 5fbe 7b99 42be 961e dc3d 8c4f 863b
000000f0: 2ef4 70be 2075 26be ed0c 45bc 0207 6bbb
00000100: a87b f53d 14fa 0e3e 2fdc 45bd 02a6 a0bd
00000110: 4588 0ebe a8fa b13c fcdb 263e 671b 64bd
00000120: 1341 d0bd 9957 09be 3235 debd 5850 7ebd
00000130: 8182 09bd 8b54 cfbd f994 b4bd a94b 223e
00000140: dd9a f1bd a153 b1bd fcb9 d0bc 4e25 f6bc
00000150: 9ccb 293e ee6e 403e 2efd 713e 2897 41be
00000160: 998d 83be 227e 7abd aefa 26be 308e 0dbd
00000170: 8ea7 5cbe 2ece 283e aa4f 373e eab5 ca3b
00000180: 15ba 333d 3fba 6f3d 7b5e 573d 4d17 ea3d
00000190: 17da c4bd 90d3 ef3d cb59 acbd 5827 823e
000001a0: 0ff5 a33d 6b36 d53a aba6 d2bd 437e e43a
000001b0: 70dc b83d e7a0 c6bd b039 003e 2c5e 6e3d
000001c0: b864 a3bd 406c 0a3e 553d 3f3d 9224 803d
000001d0: 7619 813e b390 0cbe 3872 17be add7 92bd
000001e0: be1b f13d 9a53 3f3e 1ace e7bd 40d1 5e3d
000001f0: 57d4 5d3b c399 263e 9db0 993d a5fd 063e
00000200: aed2 50be e388 87bd 82e7 3b3e d504 adba
00000210: 294e 433c a7e1 4f3e 776a 49be d967 5abd
00000220: 922e c83d 33f2 093e 3e2b 723d f755 07bd
00000230: 8193 de3d 55aa cd3d f649 213e 0f79 62be
00000240: a2c8 e03d fbca 62bc 29c1 b4bd 5fc7 b53d
00000250: 5a9d 24be 1683 1ebe e950 84bd 6121 2ebe
00000260: 822a ff3d 6c7b a83d 7e08 cdbd 950e 39be
00000270: d0c9 b9bd d06a e2bd 7d36 783d 3350 d6bd
00000280: dd8e 8cbd 7360 f7bc ccf6 97bd 4fe1 0cbe
00000290: ef64 6e3d 8b54 72be 42ce 283e 4ad8 e1bd
000002a0: 9326 2d3e 2204 9ebd 7d33 acbd 052b 013d
000002b0: 8896 c4bd 7f60 ecbb 263a 8c3c 0990 46be
000002c0: ecdd 34be 8e4d 76be 2266 ba3c 428c bd3d
000002d0: 7b04 fdbd 72e9 253e 737d 0fbe 3331 45be
000002e0: 1557 01be 70da c7bd 53b8 cebd 5c15 e3bd
000002f0: bb61 2f3e f37a 363c dd35 62be 1809 1c3e
0.04126681 -0.24324048 -0.13445078 -0.011146893 -0.16329254 -0.011583584 -0.10701083 -0.09845099
0.081518985 -0.015332891 -0.001642918 -0.06189086 -0.24675804 -0.056152113 0.0754783 0.03798872
0.031497892 0.034132708 0.17778833 0.102241784 -0.15136737 -0.030622816 -0.205171 0.21805272
-0.20159045 0.031752918 0.108013965 0.07794834 0.23728772 -0.18107925 -0.17620063 -0.09328252
0.0026172127 0.15605564 -0.11615544 0.08722328 0.10766174 0.11431073 0.14673951 -0.20578372
-0.20917918 0.09545423 -0.052982416 -0.19549225 -0.2433798 0.23832352 -0.08707001 0.09841744
0.1305731 0.08888797 0.1533587 0.024173478 -0.14122805 0.05202534 0.018223137 -0.042762373
-0.21848144 -0.1900386 0.10748021 0.004098838 -0.23530647 -0.16255617 -0.0120270075 -0.0035862331
0.11986476 0.13962585 -0.048305687 -0.078441635 -0.1391917 0.021725968 0.16294855 -0.055690195
-0.10168662 -0.13412322 -0.1084999 -0.06208834 -0.033571724 -0.10123547 -0.08817477 0.15849175
-0.11797116 -0.08658529 -0.02547931 -0.030047085 0.16581577 0.18792316 0.23631737 -0.18905318
-0.25693968 -0.061155446 -0.16306564 -0.03455943 -0.21548292 0.16484901 0.17901483 0.0061862366
0.043878634 0.058527227 0.052580338 0.114302255 -0.0961191 0.11710274 -0.08415564 0.25420642
0.080057256 0.0016266828 -0.10285696 0.0017432648 0.0902642 -0.096986584 0.12522006 0.058195278
-0.07978195 0.13517857 0.04668935 0.06256975 0.25214738 -0.13727073 -0.14789665 -0.07170043
0.117728695 0.18684235 -0.11318608 0.054398775 0.0033848488 0.16269593 0.075043894 0.13182695
-0.20392868 -0.06617906 0.18350032 -0.0013200293 0.01192049 0.20300923 -0.1966952 -0.053321693
0.097745076 0.13471298 0.05912327 -0.033040967 0.10867978 0.10042254 0.1575087 -0.22116493
0.10975768 -0.01384234 -0.08825905 0.08875918 -0.1607565 -0.15479693 -0.06460745 -0.1700492
0.124592796 0.08226666 -0.100113854 -0.18071969 -0.09071696 -0.11055529 0.06059884 -0.104645155
-0.068631865 -0.030197358 -0.0742012 -0.13757823 0.058201727 -0.23665063 0.16484931 -0.11027582
0.16909246 -0.07715632 -0.08408258 0.031535167 -0.09599024 -0.0072136517 0.017117571 -0.19390883
-0.17662781 -0.24053022 0.022753779 0.09255268 -0.1235437 0.16202334 -0.14012699 -0.1925705
-0.12630875 -0.097584605 -0.10093751 -0.11088058 0.17127125 0.011137712 -0.2209086 0.15237844

fc3.bias f4 [3]
00000000: 4843 273d 6eaa de3d b316 7f3d
0.04083565 0.10872351 0.062277507
